…
2025-04-04 18:03:35,870 - INFO - Configuration: batch_size=128, learning_rate=0.001, num_epochs=1
2025-04-04 18:03:35,870 - INFO - Loading data...
2025-04-04 18:03:43,672 - INFO - Loaded data shapes: Train: torch.Size([50000, 3, 32, 32]), Test: torch.Size([10000, 3, 32, 32])
2025-04-04 18:03:43,672 - INFO - Creating dataloaders...
2025-04-04 18:03:43,788 - INFO - Created dataloaders - Training: 45000 samples, Validation: 5000 samples, Test: 10000 samples
2025-04-04 18:03:43,789 - INFO - Initializing model...
2025-04-04 18:03:44,710 - INFO - Model architecture:
ConvAutoencoder(
  (encoder): Sequential(
    (0): Conv2d(3, 32, kernel_size=(3, 3), stride=(1, 1), padding=(1, 1))
    (1): ReLU(inplace=True)
    (2): MaxPool2d(kernel_size=2, stride=2, padding=0, dilation=1, ceil_mode=False)
    (3): Conv2d(32, 64, kernel_size=(3, 3), stride=(1, 1), padding=(1, 1))
    (4): ReLU(inplace=True)
    (5): MaxPool2d(kernel_size=2, stride=2, padding=0, dilation=1, ceil_mode=False)
    (6): Conv2d(64, 128, kernel_size=(3, 3), stride=(1, 1), padding=(1, 1))
    (7): ReLU(inplace=True)
    (8): MaxPool2d(kernel_size=2, stride=2, padding=0, dilation=1, ceil_mode=False)
  )
  (decoder): Sequential(
    (0): ConvTranspose2d(128, 64, kernel_size=(2, 2), stride=(2, 2))
    (1): ReLU(inplace=True)
    (2): ConvTranspose2d(64, 32, kernel_size=(2, 2), stride=(2, 2))
    (3): ReLU(inplace=True)
    (4): ConvTranspose2d(32, 3, kernel_size=(2, 2), stride=(2, 2))
    (5): Sigmoid()
  )
)
2025-04-04 18:03:44,710 - INFO - Starting model training...
2025-04-04 18:03:44,710 - INFO - Starting training for 1 epochs
2025-04-04 18:03:55,917 - INFO - Epoch [1/1], Batch [100/352], Loss: 0.020934
2025-04-04 18:04:11,582 - INFO - Epoch [1/1], Batch [200/352], Loss: 0.017599
2025-04-04 18:04:26,766 - INFO - Epoch [1/1], Batch [300/352], Loss: 0.013129
…
2025-05-10 22:07:27,990 - INFO - Configuration: batch_size=128, learning_rate=0.001, num_epochs=50
2025-05-10 22:07:27,990 - INFO - Loading data...
2025-05-10 22:07:35,669 - INFO - Loaded data shapes: Train: torch.Size([50000, 3, 32, 32]), Test: torch.Size([10000, 3, 32, 32])
2025-05-10 22:07:35,669 - INFO - Creating dataloaders...
2025-05-10 22:07:35,794 - INFO - Created dataloaders - Training: 45000 samples, Validation: 5000 samples, Test: 10000 samples
2025-05-10 22:07:35,794 - INFO - Initializing model...
2025-05-10 22:07:37,048 - INFO - Model architecture:
ConvAutoencoder(
  (encoder): Sequential(
    (0): Conv2d(3, 32, kernel_size=(3, 3), stride=(1, 1), padding=(1, 1))
    (1): BatchNorm2d(32, eps=1e-05, momentum=0.1, affine=True, track_running_stats=True)
    (2): LeakyReLU(negative_slope=0.2, inplace=True)
    (3): Conv2d(32, 32, kernel_size=(3, 3), stride=(2, 2), padding=(1, 1))
    (4): BatchNorm2d(32, eps=1e-05, momentum=0.1, affine=True, track_running_stats=True)
    (5): LeakyReLU(negative_slope=0.2, inplace=True)
    (6): Conv2d(32, 64, kernel_size=(3, 3), stride=(1, 1), padding=(1, 1))
    (7): BatchNorm2d(64, eps=1e-05, momentum=0.1, affine=True, track_running_stats=True)
    (8): LeakyReLU(negative_slope=0.2, inplace=True)
    (9): Conv2d(64, 64, kernel_size=(3, 3), stride=(2, 2), padding=(1, 1))
    (10): BatchNorm2d(64, eps=1e-05, momentum=0.1, affine=True, track_running_stats=True)
    (11): LeakyReLU(negative_slope=0.2, inplace=True)
    (12): Conv2d(64, 128, kernel_size=(3, 3), stride=(1, 1), padding=(1, 1))
    (13): BatchNorm2d(128, eps=1e-05, momentum=0.1, affine=True, track_running_stats=True)
    (14): LeakyReLU(negative_slope=0.2, inplace=True)
    (15): Conv2d(128, 128, kernel_size=(3, 3), stride=(2, 2), padding=(1, 1))
    (16): BatchNorm2d(128, eps=1e-05, momentum=0.1, affine=True, track_running_stats=True)
    (17): LeakyReLU(negative_slope=0.2, inplace=True)
  )
  (decoder): Sequential(
    (0): ConvTranspose2d(128, 128, kernel_size=(3, 3), stride=(2, 2), padding=(1, 1), output_padding=(1, 1))
    (1): BatchNorm2d(128, eps=1e-05, momentum=0.1, affine=True, track_running_stats=True)
    (2): LeakyReLU(negative_slope=0.2, inplace=True)
    (3): Conv2d(128, 64, kernel_size=(3, 3), stride=(1, 1), padding=(1, 1))
    (4): BatchNorm2d(64, eps=1e-05, momentum=0.1, affine=True, track_running_stats=True)
    (5): LeakyReLU(negative_slope=0.2, inplace=True)
    (6): ConvTranspose2d(64, 64, kernel_size=(3, 3), stride=(2, 2), padding=(1, 1), output_padding=(1, 1))
    (7): BatchNorm2d(64, eps=1e-05, momentum=0.1, affine=True, track_running_stats=True)
    (8): LeakyReLU(negative_slope=0.2, inplace=True)
    (9): Conv2d(64, 32, kernel_size=(3, 3), stride=(1, 1), padding=(1, 1))
    (10): BatchNorm2d(32, eps=1e-05, momentum=0.1, affine=True, track_running_stats=True)
    (11): LeakyReLU(negative_slope=0.2, inplace=True)
    (12): ConvTranspose2d(32, 32, kernel_size=(3, 3), stride=(2, 2), padding=(1, 1), output_padding=(1, 1))
    (13): BatchNorm2d(32, eps=1e-05, momentum=0.1, affine=True, track_running_stats=True)
    (14): LeakyReLU(negative_slope=0.2, inplace=True)
    (15): Conv2d(32, 3, kernel_size=(3, 3), stride=(1, 1), padding=(1, 1))
    (16): Sigmoid()
  )
)
2025-05-10 22:07:37,048 - INFO - Starting model training...
2025-05-10 22:07:37,049 - INFO - Starting training for 50 epochs
2025-05-10 22:08:27,328 - INFO - Epoch [1/50], Batch [100/352], Loss: 0.007853
2025-05-10 22:09:17,475 - INFO - Epoch [1/50], Batch [200/352], Loss: 0.006784
2025-05-10 22:10:07,838 - INFO - Epoch [1/50], Batch [300/352], Loss: 0.004685
…
2025-05-10 22:31:06,603 - INFO - Configuration: batch_size=256, learning_rate=0.001, num_epochs=30
2025-05-10 22:31:06,603 - INFO - Loading data...
2025-05-10 22:31:10,728 - INFO - Loaded data shapes: Train: torch.Size([50000, 3, 32, 32]), Test: torch.Size([10000, 3, 32, 32])
2025-05-10 22:31:10,728 - INFO - Creating dataloaders...
2025-05-10 22:31:10,813 - INFO - Created dataloaders - Training: 45000 samples, Validation: 5000 samples, Test: 10000 samples
2025-05-10 22:31:10,813 - INFO - Initializing model...
2025-05-10 22:31:11,361 - INFO - Model architecture:
ConvAutoencoder(
  (encoder): Sequential(
    (0): Conv2d(3, 32, kernel_size=(3, 3), stride=(2, 2), padding=(1, 1))
    (1): BatchNorm2d(32, eps=1e-05, momentum=0.1, affine=True, track_running_stats=True)
    (2): LeakyReLU(negative_slope=0.2, inplace=True)
    (3): Conv2d(32, 64, kernel_size=(3, 3), stride=(2, 2), padding=(1, 1))
    (4): BatchNorm2d(64, eps=1e-05, momentum=0.1, affine=True, track_running_stats=True)
    (5): LeakyReLU(negative_slope=0.2, inplace=True)
    (6): Conv2d(64, 128, kernel_size=(3, 3), stride=(2, 2), padding=(1, 1))
    (7): BatchNorm2d(128, eps=1e-05, momentum=0.1, affine=True, track_running_stats=True)
    (8): LeakyReLU(negative_slope=0.2, inplace=True)
  )
  (decoder): Sequential(
    (0): ConvTranspose2d(128, 64, kernel_size=(4, 4), stride=(2, 2), padding=(1, 1))
    (1): BatchNorm2d(64, eps=1e-05, momentum=0.1, affine=True, track_running_stats=True)
    (2): LeakyReLU(negative_slope=0.2, inplace=True)
    (3): ConvTranspose2d(64, 32, kernel_size=(4, 4), stride=(2, 2), padding=(1, 1))
    (4): BatchNorm2d(32, eps=1e-05, momentum=0.1, affine=True, track_running_stats=True)
    (5): LeakyReLU(negative_slope=0.2, inplace=True)
    (6): ConvTranspose2d(32, 3, kernel_size=(4, 4), stride=(2, 2), padding=(1, 1))
    (7): Sigmoid()
  )
)
2025-05-10 22:31:11,361 - INFO - Starting model training...
2025-05-10 22:31:11,361 - INFO - Starting training for 30 epochs
2025-05-10 22:31:40,748 - INFO - Epoch [1/30], Train Loss: 0.011340, Val Loss: 0.005191, Time: 29.39s
2025-05-10 22:31:40,753 - INFO - Saved best model at epoch 1 with validation loss: 0.005191
…
